rl/TD3_original/exp_Ob/actor.pth (torch_old, 341612 bytes, 6 tensors)

linear1.weight f4 [512, 36]
-0.103983305 -0.061487768 -0.21763718 -0.026436523 -0.15812476 -0.02783244 -0.062497742 -0.1938308
0.0063314177 -0.09314157 -0.013669186 -0.10669336 -0.12393465 -0.03526993 0.110717654 -0.022735946
0.052771043 -0.16164842 -0.15038839 -0.11836731 -0.029398415 0.040956527 0.03956863 -0.08649033
-0.13270573 -0.11590998 -0.11043356 0.037522163 -0.10954306 -0.008671596 0.0038725606 0.06660614
0.042888224 0.1396211 -0.154859 0.027275823 -0.18943965 -0.12549601 -0.09446159 -0.049418245
0.17850167 0.025577763 -0.16325556 -0.030453525 -0.12746507 -0.0515771 -0.08703153 0.04880188
-0.15793866 -0.18293656 -0.047216743 0.037898008 -0.10678863 -0.15160264 -0.16614902 -0.23116599
-0.21307106 0.06402898 -0.09032834 0.043337762 0.07926045 -0.06613534 0.0724707 0.05355359
-0.097018406 -0.24370652 -0.0023603744 -0.0929252 -0.412168 -0.115752414 0.049103126 -0.1343998
-0.11096323 -0.07332234 -0.12543069 0.020549221 -0.11778237 0.074935354 0.04322734 -0.16504042
0.11516783 0.07760113 -0.043272424 -0.015612405 -0.0023218286 -0.010735848 -0.08702124 0.04335724
-0.14102527 0.07932451 0.020585787 -0.18256575 -0.15867767 -0.13297614 -0.20410873 -0.17139775
0.09158872 -0.1758348 -0.14547275 -0.029359238 -0.16974303 0.07109166 0.01319403 0.16007164
0.09538729 0.1230662 -0.012276779 0.01377582 0.04585499 0.040246196 -0.050512623 0.058947876
-0.027470317 -0.12468013 -0.19896491 -0.16907147 0.059820656 0.0064175725 0.06941497 -0.03693543
-0.00253527 -0.034310255 0.08734795 -0.1170551 -0.06321312 -0.1833104 -0.18542531 -0.09552063
0.08112624 -0.03121943 -0.20146284 -0.1099212 -0.11742541 -0.1763424 0.12791003 -0.022587195
-0.08197489 0.09233758 0.020084437 0.12949586 -0.046218675 0.115958355 0.0021281529 0.066327624
-0.087687686 -0.1397351 -0.012788312 -0.16957273 -0.13007934 0.039036557 0.0031170237 0.052879546
-0.02412107 0.05273519 -0.1317609 -0.07145227 -0.032990325 -0.14415929 -0.12408873 0.08000096
-0.1034802 0.0448615 0.12121886 -0.107127465 -0.14558975 -0.022396838 0.079371415 0.12251977
-0.030410038 -0.14186604 0.042737164 -0.11739633 0.07432549 0.020641796 0.09440659 -0.13257362
0.0953867 0.1269998 0.06958133 0.013844881 0.09184578 0.031189859 -0.10743985 -0.05403436
0.034825385 -0.12739177 0.015783342 0.006428261 -0.1584085 -0.10373995 0.09125732 0.10496584
-0.1284075 -0.08386227 0.09426433 -0.2051286 -0.09928679 -0.07357402 -0.041410744 0.09115025
-0.13023588 -0.0056130784 -0.096572354 -0.22537288 0.07138842 0.07676862 0.01215105 0.052150145
0.06870228 0.028891824 -0.013254632 -0.020064203 -0.03724738 0.04316351 -0.20932545 -0.056198314
-0.09334546 -0.06468767 -0.11720211 0.099697314 -0.16004927 -0.051498648 0.019799953 0.068260744
-0.12971206 -0.20084077 0.021599432 0.099503025 -0.09121926 -0.16234386 0.11719822 -0.0061392086
-0.15157215 0.08684261 0.01648329 -0.06515534 0.12031237 -0.22308396 -0.15199645 -0.14206842
0.07398996 -0.2163958 -0.1301894 0.042656753 -0.15263154 0.009218116 -0.076624654 0.09721397
0.06387455 -0.10661081 0.018966502 -0.051904336 -0.10846022 0.0108508775 -0.15960221 -0.14858188
00000000: 33f5 d4bd 99da 7bbd 48dc 5ebe 6891 d8bc
00000010: 75eb 21be db00 e4bc a2fd 7fbd 957b 46be
00000020: c877 cf3b 02c1 bebd b9f4 5fbc 0c82 dabd
00000030: 73d1 fdbd 3477 10bd f0bf e23d bc40 babc
00000040: 7326 583d 2a87 25be 6aff 19be 8f6a f2bd
00000050: f2d4 f0bc 08c2 273d b712 223d d821 b1bd
00000060: 03e4 07be 3662 edbd fe2a e2bd d7b0 193d
00000070: 1d58 e0bd 4f13 0ebc c9ca 7d3b cd68 883d
00000080: 90ab 2f3d d5f8 0e3e 5c93 1ebe 8c71 df3c
00000090: 78fc 41be 0782 00be 1475 c1bd c96a 4abd
000000a0: 24c9 363e 7588 d13c 772c 27be ac79 f9bc
000000b0: 3486 02be 8242 53bd 963d b2bd 7be4 473d
000000c0: acba 21be b953 3bbe 5866 41bd f13a 1b3d
000000d0: ffb3 dabd b93d 1bbe f822 2abe c7b6 6cbe
000000e0: 4d2f 5abe a021 833d 11fe b8bd f082 313d
000000f0: 4e53 a23d f771 87bd 856b 943d 025b 5b3d
00000100: 96b1 c6bd 348e 79be 83b0 1abb 914f bebd
00000110: af07 d3be 9a0f edbd 5c20 493d 1aa0 09be
00000120: b140 e3bd 062a 96bd e770 00be d756 a83c
00000130: e237 f1bd b577 993d 270f 313d 5b00 29be
00000140: 1cdd eb3d 57ed 9e3d 6d3e 31bd 2ccb 7fbc
00000150: d229 18bb 69e5 2fbc 3138 b2bd 5c97 313d
00000160: ee68 10be e474 a23d 86a3 a83c 84f2 3abe
00000170: 667c 22be e62a 08be e101 51be e482 2fbe
00000180: de92 bb3d 0a0e 34be cff6 14be c982 f0bc
00000190: 1ed1 2dbe 8198 913d c62b 583c d2e9 233e
000001a0: 695a c33d 220a fc3d 8b24 49bc fab3 613c
000001b0: 71d2 3b3d 32d9 243d 53e6 4ebd 5473 713d
000001c0: 6e09 e1bc 4c58 ffbd 75bd 4bbe 1221 2dbe
000001d0: 8106 753d 804a d23b 7029 8e3d 9b49 17bd
000001e0: c626 26bb e988 0cbd 7be3 b23d 96ba efbd
000001f0: e175 81bd b9b5 3bbe 22e0 3dbe 52a0 c3bd
00000200: 8425 a63d e4bf ffbc 464c 4ebe 5e1e e1bd
00000210: bc7c f0bd 1a93 34be d9fa 023e c808 b9bc
00000220: 73e2 a7bd 7c1b bd3d 1e88 a43c 909a 043e
00000230: cb4f 3dbd 937b ed3d 7b78 0b3b c7d6 873d
00000240: 9a95 b3bd b816 0fbe 1186 51bc 79a4 2dbe
00000250: 8533 05be cce4 1f3d fb46 4c3b 3998 583d
00000260: 8d99 c5bc db00 583d 54ec 06be 9155 92bd
00000270: dd20 07bd 7e9e 13be 3b22 febd 8bd7 a33d
00000280: 6ded d3bd b1c0 373d 9841 f83d a565 dbbd
00000290: 7b15 15be 9379 b7bc 7b8d a23d a5eb fa3d
000002a0: 791e f9bc 5545 11be 2a0d 2f3d 7d6d f0bd
000002b0: f637 983d fc18 a93c 3e58 c13d 61c1 07be
000002c0: 1a5a c33d 3c0c 023e a880 8e3d a4d5 623c
000002d0: a419 bc3d e081 ff3c 6d09 dcbd 2253 5dbd
000002e0: 10a5 0e3d fd72 02be 114c 813c 29a4 d23b
000002f0: d635 22be 9c75 d4bd 1ee5 ba3d 55f8 d63d
00000300: 417d 03be fbbf abbd a80d c13d 3b0d 52be
00000310: df56 cbbd faad 96bd 509e 29bd fbac ba3d
00000320: 8e5c 05be eaed b7bb bac7 c5bd 26c8 66be
00000330: 1834 923d de38 9d3d 3315 473c 649b 553d
00000340: c8b3 8c3d 8cae ec3c f529 59bc af5d a4bc
00000350: b590 18bd 38cc 303d 6959 56be 3430 66bd
00000360: e82b bfbd f87a 84bd a907 f0bd 1b2e cc3d
00000370: f5e3 23be 3ff0 52bd 8333 a23c 4acc 8b3d
00000380: 3dd3 04be 34a9 4dbe 4bf1 b03c 3ec8 cb3d
00000390: 2ad1 babd 783d 26be 9f05 f03d 6a2b c9bb
000003a0: bb35 1bbe 8ada b13d f707 873c 2a70 85bd
000003b0: 5566 f63d 1f70 64be f5a4 1bbe 627a 11be
000003c0: 0c88 973d dc96 5dbe 5f50 05be d9b8 2e3d
000003d0: 714b 1cbe 9507 173c 63ed 9cbd 1e18 c73d
000003e0: a9d0 823d c556 dabd a35f 9b3c a499 54bd
000003f0: 6420 debd e1c7 313c c36e 23be d925 18be

linear1.bias f4 [512]
-0.039492115 0.05574404 -0.027953178 -0.074037045 -0.056737296 -0.114422485 0.067170076 -0.048283245
-0.18562564 0.0049661435 -0.056728654 -0.08849835 -0.028506275 -0.012060165 -0.026001014 0.11215115
-0.22402884 -0.23357959 -0.206567 0.10544875 -0.11046642 -0.049529806 -0.021567333 -0.06040554
-0.15657724 -0.0766964 -0.37704134 -0.18758617 -0.07691276 0.24824737 -0.08862491 -0.0749445
0.08245294 0.10242768 -0.16435316 -0.03475713 0.06689607 -0.13529962 -0.0005076867 -0.15411885
-0.16512707 -0.06375924 0.007958481 -0.11301986 -0.17055105 0.12801495 -0.13279206 0.026414152
-0.18899634 -0.20701072 -0.14606564 -0.14074026 -0.21273996 -0.0977395 -0.14959215 -0.024938855
0.0028263466 -0.16761649 0.03981692 -0.13479039 -0.015854005 -0.059842955 -0.15048778 -0.19552325
-0.1767753 0.22381525 0.14759055 -0.1366854 0.03665839 -0.17081933 -0.06446143 -0.011730345
0.08324761 -0.21107738 0.056907803 -0.17570792 -0.032420937 -0.11428772 -0.018093152 -0.009565589
-0.20116106 0.01564276 -0.0106292125 -0.015654178 -0.11520442 -0.11201494 -0.09462351 -0.17491163
-0.07836414 -0.017899744 -0.13282643 0.07441176 0.11635062 -0.22260235 0.032524176 0.097366616
0.07054762 -0.24004096 -0.08624432 0.014574211 -0.1640516 -0.041809104 0.017546337 -0.18971966
0.08068117 0.06980813 0.08401233 -0.053589884 -0.057305455 -0.14861913 -0.15759817 -0.030102676
-0.46308604 -0.1871394 -0.16972823 -0.18958177 -0.15192924 0.10758831 -0.20647319 0.06651566
-0.022574637 0.011410739 -0.1360932 -0.17543778 -0.014779658 0.078947514 0.08553904 -0.062649384
-0.038470514 0.10408131 0.05405775 -0.188849 0.06094796 0.06428391 -0.03794664 0.016699778
-0.14547566 -0.1259312 -0.026782893 -0.1917742 -0.23684552 -0.13696046 0.1461264 -0.12334733
-0.1756607 -0.13462308 0.066171154 0.017596802 -0.12858954 0.057679836 0.022770572 0.007321677
-0.123936504 -0.10718871 -0.01714328 0.05148533 0.04590604 -0.12144843 0.0024631512 0.072556466
0.10084818 -0.13055813 -0.30731994 -0.050839767 0.02483791 0.0013593385 0.0332603 -0.18784809
0.13603492 0.04803983 -0.07566764 -0.11102364 0.16141568 -0.071786724 0.102276295 -0.064684086
0.15001072 -0.36232764 -0.02500453 -0.080477804 -0.032632876 -0.059256714 0.0646063 -0.095335685
-0.01773558 0.06391705 -0.12600546 -0.15541212 -0.09606329 -0.17956197 0.093210965 0.013755482
-0.18657349 -0.21397679 0.017437562 -0.077512085 -0.058726475 0.13157903 0.038704284 -0.017465902
-0.1797862 0.048934195 0.046679534 -0.30530065 0.024595574 -0.12597181 -0.13257135 -0.060903296
-0.1920132 -0.029688964 0.02265879 -0.21092752 0.057338852 -0.18456912 -0.12174403 -0.05011659
-0.036628045 -0.19009311 0.037225716 -0.12128175 -0.06659246 -0.035267837 0.07242867 -0.30661035
-0.08893179 -0.18822749 -0.14419867 -0.12850513 -0.032482997 -0.15717901 0.023027495 -0.14412022
-0.1872244 -0.05334807 -0.14199765 -0.111856036 -0.08827382 -0.21141309 -0.009194113 -0.13807724
-0.15297735 -0.008983 -0.003754564 0.10559569 -0.122550674 -0.044121515 -0.006157379 0.033944324
-0.13951768 0.061616994 -0.15817961 -0.11765249 -0.11777934 0.023585172 -0.0520779 -0.18696406
00000000: 7cc2 21bd dd53 643d 10fe e4bc bca0 97bd
00000010: 5e65 68bd 5656 eabd 7790 893d a7c4 45bd
00000020: a614 3ebe 08bb a23b 4e5c 68bd 9f3e b5bd
00000030: fe85 e9bc 0098 45bc 1400 d5bc 81af e53d
00000040: d167 65be 7d2f 6fbe 4d86 53be 84f5 d73d
00000050: 383c e2bd c4df 4abd faad b0bc cd6b 77bd
00000060: c955 20be 0113 9dbd 900b c1be 9716 40be
00000070: 7084 9dbd 8f34 7e3e fa80 b5bd 817c 99bd
00000080: 16dd a83d 9ac5 d13d 324c 28be 7e5d 0ebd
00000090: cf00 893d fc8b 0abe 4716 05ba 55d1 1dbe
000000a0: 1217 29be 3494 82bd 4a64 023c f576 e7bd
000000b0: efa4 2ebe 5a16 033e a4fa 07be 7e62 d83c
000000c0: 4288 41be 9efa 53be 3b92 15be 371e 10be
000000d0: 81d8 59be a62b c8bd af2e 19be 924c ccbc
000000e0: 3a3a 393b a8a3 2bbe 1117 233d 7e06 0abe
000000f0: 42e0 81bc e31d 75bd 7819 1abe 3f37 48be
00000100: 9604 35be d32f 653e fa21 173e 42f7 0bbe
00000110: 1c27 163d 43eb 2ebe 5b04 84bd a230 40bc
00000120: b97d aa3d ab24 58be 2818 693d c7ec 33be
00000130: d1cb 04bd ae0f eabd 1738 94bc fdb8 1cbc
00000140: 2afd 4dbe 3f25 803c 2626 2ebc 313d 80bc
00000150: 4cf0 ebbd 1768 e5bd f9c9 c1bd 091c 33be
00000160: 617d a0bd 7ca2 92bc a703 08be 3165 983d
00000170: 3c49 ee3d dff1 63be 1238 053d 2668 c73d
00000180: 457b 903d 4ccd 75be dda0 b0bd acc8 6e3c
00000190: 25fd 27be 0640 2bbd 56bd 8f3c df45 42be
000001a0: 2b3c a53d 91f7 8e3d a80e ac3d 1181 5bbd
000001b0: 20b9 6abd 9d2f 18be 6a61 21be e399 f6bc
000001c0: 9d19 edbe 79a1 3fbe 3dcd 2dbe b921 42be
000001d0: 5793 1bbe 4357 dc3d b56d 53be 5d39 883d
000001e0: 72ee b8bc 1cf4 3a3c 045c 0bbe f6a5 33be
000001f0: 6126 72bc 3caf a13d 182f af3d 524e 80bd
00000200: 4293 1dbd 9528 d53d a96b 5d3d a261 41be
00000210: 91a4 793d 48a7 833d f06d 1bbd f9cd 883c
00000220: 92f7 14be 1cf4 00be cc67 dbbc 7560 44be
00000230: a287 72be 5d3f 0cbe 29a2 153e 869d fcbd
00000240: 66e0 33be a2da 09be be84 873d 2b27 903c
00000250: faac 03be b141 6c3d 5a89 ba3c aeea ef3b
00000260: 6cd2 fdbd c185 dbbd 1070 8cbc 48e2 523d
00000270: f907 3c3d f4b9 f8bd d26c 213b 7c98 943d
00000280: 7e89 ce3d 08b1 05be 0a59 9dbe 5c3d 50bd
00000290: df78 cb3c d52b b23a f43b 083d 405b 40be
000002a0: bd4c 0b3e 6ac5 443d a3f7 9abd 5d60 e3bd
000002b0: 274a 253e eb04 93bd 3c76 d13d 1779 84bd
000002c0: 699c 193e 0283 b9be 4dd6 ccbc 8cd1 a4bd
000002d0: 0daa 05bd 2bb7 72bd 4f50 843d 5b3f c3bd
000002e0: 354a 91bc f1e6 823d 9307 01be 5b24 1fbe
000002f0: d5bc c4bd 18df 37be 64e5 be3d ac5e 613c
00000300: 1f0d 3fbe bb1c 5bbe 38d9 8e3c a8be 9ebd
00000310: 2c8b 70bd a7bc 063e 6288 1e3d a714 8fbc
00000320: e019 38be 396f 483d 0a33 3f3d 5e50 9cbe
00000330: a87c c93c c1fe 00be c9c0 07be bc75 79bd
00000340: 1c9f 44be 4536 f3bc ed9e b93c 62fd 57be
00000350: 25dc 6a3d b0ff 3cbe ef54 f9bd 0e47 4dbd
00000360: 4a07 16bd c5a7 42be fe79 183d 9162 f8bd
00000370: a161 88bd 0275 10bd 7c55 943d 08fc 9cbe
00000380: df21 b6bd b5be 40be d1a8 13be d996 03be
00000390: e40c 05bd 89f3 20be 28a4 bc3c 4094 13be
000003a0: c1b7 3fbe 8183 5abd d567 11be c714 e5bd
000003b0: e8c8 b4bd ac7c 58be e8a2 16bc 1f64 0dbe
000003c0: 18a6 1cbe 6f2d 13bc 220f 76bb 8e42 d83d
000003d0: d9fb fabd c3b8 34bd d7c3 c9bb 3409 0b3d
000003e0: b9dd 0ebe 1a62 7c3d d6f9 21be caf3 f0bd
000003f0: 4b36 f1bd b135 c13c a34f 55bd 8273 3fbe

linear2.weight f4 [128, 512]
-0.017375046 -0.0026246067 0.01539463 -0.047834378 -0.02406141 0.0022858067 -0.0047145905 -0.018703558
-0.019899797 -0.0046537365 -0.055862535 0.028485827 -0.029823642 0.033139758 -0.055527333 -0.07875231
0.0097089205 -0.048086286 -0.045007687 0.037594046 -0.00408791 0.034103 -0.008659285 -0.009955721
0.006688623 -0.08685765 0.08020633 -0.043639254 -0.060546286 0.08154788 0.0292988 -0.022150982
0.046223525 -0.250257 0.035310283 0.023583116 -0.043401573 -0.024860878 0.0060995696 -0.0013448653
-0.015135897 -0.01199572 -0.0040234798 0.011269515 -0.01624659 0.00734642 0.03907099 -0.037452687
-0.014584352 -0.06706912 0.008354068 -0.03671058 0.018205704 0.016448937 0.015797477 -0.029481841
0.0221123 -0.034164876 -0.001468352 0.033196233 -0.042657554 -0.113208644 0.011598237 -0.02594299
0.017754223 -0.06823199 -0.05394001 -0.025504824 0.005401399 0.01624571 -0.02297232 -0.020319315
-0.06836152 0.044050667 -0.018285912 -0.005331086 -0.044591546 -0.028770372 -0.024641633 0.032232527
0.03042341 -0.028933505 -0.0027356744 0.0096636275 -0.04446602 0.02470229 -0.04253859 0.03716536
0.031220539 0.034649074 -0.08120795 -0.042236682 -0.0036185177 0.02646308 -0.040109534 -0.041527186
0.008656176 -0.022770382 -0.057849962 -0.06824995 -0.039455697 0.02274623 0.043580554 0.032800693
-0.025076164 0.0031276955 -0.0949912 0.0052961838 -0.026138669 -0.0071973074 0.017547071 -0.0097167995
0.042856023 -0.10531398 0.024565687 0.014186417 -0.024186548 0.0565934 -0.014136218 0.02461756
0.022866795 0.017968737 0.037751812 0.022971304 -0.0043535526 -0.01897084 -0.012141845 -0.031639557
-0.026813323 -0.0018540199 0.017422248 -0.030830251 -0.038823657 0.041047372 -0.01383949 -0.005869552
-0.0008468263 0.025856152 -0.2290625 -0.0450668 0.0209997 -0.016641213 0.003946632 -0.03448146
-0.012265295 -0.039956465 -0.05523092 -0.0029715162 -0.048628982 -0.038693048 -0.042269018 0.014990392
0.033555437 0.010111496 0.028139966 -0.19241789 -0.016217351 -0.006959201 0.026310349 0.02467678
0.022860931 -0.0556799 -0.0028510843 -0.088789895 -0.0005324722 -0.048115585 -0.1221876 -0.004169327
0.006081117 0.03518801 0.001339507 0.011231997 0.00024077357 -0.029393913 -0.015956543 -0.010761661
0.033486072 -0.022573698 -0.043953344 -0.048602358 -0.0108706765 -0.029497162 -0.01529905 -0.04731447
-0.016720138 -0.0008123619 -0.038592692 -0.01943274 -0.06978218 -0.005456356 -0.03604067 -0.017689811
0.025200471 0.01873189 0.0068639615 -0.02560452 0.017663093 -0.18430825 1.7474276e-06 0.04881077
0.021802252 0.022025585 -0.14604972 -0.10426837 0.011704925 0.018254343 0.008324451 -0.012954021
-0.044212718 -0.04059823 -0.041055683 -0.02045239 0.033061292 0.016936528 -0.18374991 -0.1685275
-0.07445368 0.023636729 -0.040748123 -0.019565906 -0.0052373903 0.021944491 -0.03540819 -0.016906938
0.0021503505 0.05118088 0.014762607 -0.16662851 -0.009691962 0.051759467 0.01846264 0.025887422
0.027208567 0.022957278 -0.18877855 -0.042405505 -0.00020564761 0.04556414 0.0177377 -0.051123604
0.019541148 -0.048760083 0.017665679 0.020321984 -0.03751211 -0.03745244 -0.008634465 -0.04117305
-0.06235836 0.041242123 -0.110869095 -0.006292546 -0.05218096 0.022861512 -0.0070654494 -0.023227004
00000000: 1d56 8ebc 9801 2cbb c239 7c3c fbed 43bd
00000010: 6f1c c5bc 79cd 153b da7c 9abb 3438 99bc
00000020: e604 a3bc 5f7e 98bb 1dd0 64bd 1c5b e93c
00000030: b650 f4bc 8ebd 073d a170 63bd e448 a1bd
00000040: 2a12 1f3c 20f6 44bd fb59 38bd 37fc 193d
00000050: e0f3 85bb 96af 0b3d acdf 0dbc 521d 23bc
00000060: 3d2c db3b 6ce2 b1bd 3743 a43d 13bf 32bd
00000070: 62ff 77bd 9302 a73d 0904 f03c fa75 b5bc
00000080: e154 3d3d af21 80be 84a1 103d 6131 c13c
00000090: d9c5 31bd 0aa9 cbbc e6de c73b 3146 b0ba
000000a0: 8efc 77bc b289 44bc 65d7 83bb c6a3 383c
000000b0: 9217 85bc 3dba f03b e708 203d fd67 19bd
000000c0: 35f3 6ebc 895b 89bd 80df 083c d55d 16bd
000000d0: 2124 953c ecbf 863c b669 813c e783 f1bc
000000e0: db24 b53c 78f0 0bbd b875 c0ba c6f8 073d
000000f0: b0b9 2ebd efd9 e7bd 8806 3e3c 6586 d4bc
00000100: 4e71 913c 37bd 8bbd 33f0 5cbd 7eef d0bc
00000110: 38fe b03b b915 853c 7230 bcbc b174 a6bc
00000120: 2001 8cbd 796e 343d 56cc 95bc 64b0 aebb
00000130: a0a5 36bd d8af ebbc 40dd c9bc 4106 043d
00000140: 843a f93c f505 edbc 0049 33bb 3154 1e3c
00000150: 0022 36bd 755c ca3c f23c 2ebd b43a 183d
00000160: 37c2 ff3c 30ec 0d3d 5b50 a6bd 5f00 2dbd
00000170: a724 6dbb 1ac9 d83c e549 24bd 6918 2abd
00000180: a2d2 0d3c f488 babc 15f4 6cbd a1c6 8bbd
00000190: 4c9c 21bd 4d56 ba3c 8681 323d 055a 063d
000001a0: 876c cdbc 06fa 4c3b bf8a c2bd 9c8b ad3b
000001b0: c320 d6bc 64d7 ebbb e0be 8f3c 3633 1fbc
000001c0: cc89 2f3d dbae d7bd fb3d c93c 256e 683c
000001d0: de22 c6bc 7bce 673d 989b 67bc c4aa c93c
000001e0: 2553 bb3c 2c33 933c a5a1 1a3d 512e bc3c
000001f0: 3fa8 8ebb bc68 9bbc 97ee 46bc 7b98 01bd
00000200: 9da7 dbbc 9602 f3ba 1ab9 8e3c b98f fcbc
00000210: 8e05 1fbd 4a21 283d 07bf 62bc 5f55 c0bb
00000220: 8dfd 5dba 48d0 d33c 5c8f 6abe f797 38bd
00000230: 9007 ac3c 2753 88bc c052 813b 6e3c 0dbd
00000240: 60f4 48bc 64a9 23bd d139 62bd c5bd 42bb
00000250: 2f2f 47bd 9a7c 1ebd 4722 2dbd 439a 753c
00000260: 6d71 093d b0aa 253c c985 e63c 3209 45be
00000270: 40da 84bc 020a e4bb cd88 d73c f526 ca3c
00000280: d946 bb3c 9b10 64bd 42d9 3abb 7ad7 b5bd
00000290: 9b95 0bba d914 45bd 7e3d fabd da9e 88bb
000002a0: 1b44 c73b 4e21 103d 6692 af3a 6906 383c
000002b0: 2a78 7c39 81cb f0bc 4cb7 82bc ae51 30bc
000002c0: b128 093d 7aec b8bc 6c08 34bd 4413 47bd
000002d0: ec1a 32bc 08a4 f1bc dea8 7abc d1cc 41bd
000002e0: acf8 88bc aff4 54ba 5f13 1ebd 6931 9fbc
000002f0: f6e9 8ebd 3bcb b2bb 629f 13bd 39ea 90bc
00000300: 3871 ce3c 9f73 993c 15eb e03b 92c0 d1bc
00000310: 31b2 903c 4dbb 3cbe 2889 ea35 cded 473d
00000320: a39a b23c 006f b43c 0f8e 15be a88a d5bd
00000330: 04c6 3f3c 228a 953c 4763 083c 1a3d 54bc
00000340: 6518 35bd 544a 26bd 012a 28bd c58b a7bc
00000350: 476b 073d 79be 8a3c f028 3cbe 7992 2cbe
00000360: 2c7b 98bd d0a1 c13c 81e7 26bd ae48 a0bc
00000370: 6a9e abbb efc4 b33c 2e08 11bd 6b80 8abc
00000380: e5ec 0c3b 0ba3 513d ddde 713c aaa0 2abe
00000390: 09cb 1ebc bc01 543d f63e 973c dc11 d43c
000003a0: 80e4 de3c e710 bc3c 2a4f 41be 65b1 2dbd
000003b0: 1ca3 57b9 77a1 3a3d a74e 913c fc66 51bd
000003c0: c214 a03c a7b8 47bd 9db7 903c 4a7a a63c
000003d0: 4ca6 19bd bb67 19bd 9277 0dbc 12a5 28bd
000003e0: 7b6b 7fbd 80ed 283d 560f e3bd b431 cebb
000003f0: b4bb 55bd 1148 bb3c 4985 e7bb 8f46 bebc

linear2.bias f4 [128]
-0.093830936 -0.03238326 -0.08576543 -0.03833342 -0.16922939 -0.10096832 0.37203747 -0.1211333
-0.27076304 -0.010649164 -0.10415742 -0.044233717 -0.11021529 0.5128903 0.007572742 -0.072352916
-0.047657356 -0.45802724 0.80832154 -0.06812904 -0.075212255 -0.07806787 -0.05924431 -0.025562838
0.15215753 -0.3277044 -0.09150843 0.071470946 -0.020923922 0.38665068 -0.06285892 -0.72356606
-0.17875104 -0.064904615 -0.06888481 -0.14775676 -0.4496725 -0.078818835 -0.056803055 0.2467079
-0.08133677 -0.51226616 -0.058053806 -0.5134535 -0.089985944 -0.05976918 -0.27157903 -0.09183946
0.105593935 -0.0664037 -0.039722715 0.15262721 -0.42632294 -0.46544284 0.26361936 -0.028606247
-0.36134335 0.28522164 -0.07203887 -0.34860072 -0.06263321 0.32587808 -0.073179044 -0.08366406
0.13719031 -0.35021412 0.5214214 0.0626644 0.08921232 -0.11093331 -0.051047135 -0.037625216
-0.08428509 0.056282707 0.37027064 -0.22534949 -0.37343442 -0.05618395 -0.072677076 0.86619085
-0.05695778 -0.4145588 -0.03167763 -0.066103965 -0.27733862 -0.12720627 -0.09731029 -1.0710943
0.07992402 -0.1403751 -0.15917778 -0.40067935 0.47107646 0.72248024 -0.1062441 -0.022688765
-0.47315446 -0.42314774 -0.14680612 0.5064805 -0.5106915 -0.16139294 -0.04607726 -0.04189416
0.12969834 -0.42657137 -0.04155674 -0.5467814 -0.21470584 -0.0073534246 0.17959633 0.24925992
-0.43851402 0.45814854 -0.051298868 -0.20954862 -0.07041133 -0.110539265 -0.21814945 -0.06518542
-0.064999364 -0.09539354 -0.105639905 -0.07172186 -0.31905785 -0.10125737 -0.27036774 -0.082922794
00000000: 6f2a c0bd 4fa4 04bd c9a5 afbd 8103 1dbd
00000010: 784a 2dbe 7bc8 cebd b27b be3e bc14 f8bd
00000020: 74a1 8abe d579 2ebc 7c50 d5bd 6a2e 35bd
00000030: 8eb8 e1bd c74c 033f c424 f83b c42d 94bd
00000040: 5c34 43bd 8c82 eabe 29ee 4e3f 3d87 8bbd
00000050: e208 9abd 0ce2 9fbd 29aa 72bd 2869 d1bc
00000060: 2fcf 1b3e dfc8 a7be c668 bbbd 5c5f 923d
00000070: a568 abbc 14f7 c53e 2dbc 80bd a03b 39bf
00000080: 830a 37be b6ec 84bd 7b13 8dbd 8c4d 17be
00000090: 793b e6be c56b a1bd 52aa 68bd ffa0 7c3e
000000a0: e493 a6bd e023 03bf d4c9 6dbd b071 03bf
000000b0: 8d4a b8bd 87d0 74bd 680c 8bbe 5416 bcbd
000000c0: a241 d83d aafe 87bd 49b4 22bd 4f4a 1c3e
000000d0: 0047 dabe 864e eebe 1ef9 863e a657 eabc
000000e0: ff01 b9be 9208 923e 1d89 93bd cb7b b2be
000000f0: d745 80bd 7ed9 a63e e5de 95bd 1058 abbd
00000100: 9e7b 0c3e 444f b3be df7b 053f 3156 803d
00000110: f3b4 b63d 0131 e3bd cd16 51bd e61c 1abd
00000120: a99d acbd b288 663d 1d94 bd3e 04c2 66be
00000130: cc32 bfbe 2421 66bd b8d7 94bd afbe 5d3f
00000140: 904c 69bd 0d41 d4be 67c0 01bd 8461 87bd
00000150: 54ff 8dbe 5c42 02be 9e4a c7bd 9e19 89bf
00000160: 34af a33d 7dbe 0fbe 80ff 22be d825 cdbe
00000170: ef30 f13e 77f4 383f 8296 d9bd cadd b9bc
00000180: 4d41 f2be d2a6 d8be 5854 16be b5a8 013f
00000190: aebc 02bf 3144 25be 82bb 3cbd 3699 2bbd
000001a0: a4cf 043e 9067 dabe 6637 2abd def9 0bbf
000001b0: d9db 5bbe fff4 f0bb 1ae8 373e fe3d 7f3e
000001c0: e984 e0be 7292 ea3e c31e 52bd ea93 56be
000001d0: d133 90bd 6962 e2bd 9262 5fbe ef7f 85bd
000001e0: 631e 85bd b05d c3bd bc59 d8bd e9e2 92bd
000001f0: 8d5b a3be 0660 cfbd a46d 8abe 6dd3 a9bd

linear3.weight f4 [4, 128]
-0.041428767 0.027141528 -0.0730605 -0.01439236 -2.1958184 -0.2591676 0.5422746 -0.1087266
-0.25358534 1.1852729 -0.15476844 -0.007642709 0.09893722 0.46567822 0.55322003 -0.29625914
-0.033118095 -0.1378464 -1.2458365 -0.008481163 -0.07348982 0.027182402 0.043938063 -0.09309593
1.0729082 0.75969166 0.02200452 1.9010383 -0.09989889 -1.8470842 -0.0749565 -0.3928135
0.26475093 -0.018922094 -0.0007631803 0.007981312 1.8781484 -0.042575374 -0.030059114 -2.0660543
-0.07005472 0.7326871 0.11775676 -0.8065461 0.023642898 0.03443111 -0.8451567 -0.037051428
0.0057131927 0.01591646 -0.086600475 1.0633698 1.5270112 1.193489 0.37218457 -1.009139
-1.6115751 -0.04012156 -0.5657878 0.51098794 -0.007455733 -0.6843396 -0.055085007 0.03861142
0.036665905 -1.4864284 -0.4022698 0.028176028 -0.023578482 1.00214 0.03825422 -0.07824795
-0.0035313873 0.53368765 0.3363553 -1.2034694 2.4958553 -0.013944634 -0.0038829916 -0.40314254
0.02669731 -0.6820712 -0.009883463 -0.065461986 1.7082815 0.02291927 0.012432452 -0.24372537
0.36030155 -0.0171954 -1.2701395 1.0103102 -0.4848406 -0.96313757 -0.5718362 -0.08257545
-0.4836571 0.10450652 -0.014705347 -0.6367944 0.36768988 -1.1912185 -0.08037083 -1.2617166
-0.50194526 -0.20897579 -0.055297278 1.0366995 -0.67515665 -0.014430529 -0.11445913 0.5837595
0.33388168 1.222242 -0.003124894 -0.67097306 0.044202954 0.057144776 -0.04398581 -0.07316252
-0.044965565 0.03671101 0.0208361 -0.05532454 0.9795968 -0.6831822 0.2670353 1.4293139
0.06880437 -0.03176892 0.030475015 -0.009586027 -0.6471238 0.30885696 -1.1670638 -0.3513078
-0.9779626 1.0984784 -0.45280063 0.023003275 0.024901938 -0.7900861 -0.8378152 -0.6558757
-0.035729602 -0.3044598 -1.3468342 0.021870742 0.0008918741 0.59151524 -0.0014024304 0.0039456333
0.824889 0.47481704 0.05934518 -1.6620383 0.06482101 -0.14170709 -0.0143653685 -2.2161546
-1.7507173 0.024057295 -0.07363205 -0.0074829063 1.6889608 -0.0012787364 0.05616752 1.4007643
-0.023288444 0.34911895 -1.157146 0.02025643 0.015834255 0.06165448 -1.8349317 0.06567311
1.3473842 -0.028570723 -0.04182004 1.4662777 -0.5546982 1.7625511 0.74898165 0.7569103
0.6860728 0.4730186 -0.7587191 0.36358786 -0.028814951 -0.121128365 0.021829018 0.061754473
1.3837657 0.30465677 0.18477924 -0.024384396 0.3705429 -2.5868201 0.0141589455 -0.010677721
-0.07294737 1.8469083 -0.80924094 1.040731 -1.5503246 -0.05330313 0.08820883 0.7476128
0.013499134 0.9989607 0.031184945 -0.031528745 -0.4602177 0.0067507504 0.026782613 2.4998322
0.64100015 -0.016423296 -0.8727309 -0.5689993 0.43324816 -1.3791846 -1.8979285 -0.07441651
0.34954557 -0.7542449 0.13920468 0.14258263 0.34929088 0.58170307 -0.03335129 -0.25403953
-0.10671953 0.4137694 -0.07349001 0.7098805 -2.2943897 -0.07172867 0.052564748 -0.25599638
-0.93310845 0.99040407 -0.12924416 0.6956833 0.086045384 -0.0028351666 0.21202518 -0.043426197
0.031853814 0.045958146 -0.0048972764 0.10975276 -0.07727711 0.22685218 -2.1848686 2.8167512
00000000: 36b1 29bd e957 de3c bea0 95bd efcd 6bbc
00000010: 4a88 0cc0 9eb1 84be 82d2 0a3f 0dac debd
00000020: f0d5 81be 06b7 973f 9e7b 1ebe b16f fabb
00000030: 999f ca3d 606d ee3e d49f 0d3f 47af 97be
00000040: d7a6 07bd 9b27 0dbe 9277 9fbf 93f4 0abc
00000050: d581 96bd a1ad de3c 66f8 333d 14a9 bebd
00000060: 0e55 893f 277b 423f d342 b43c 3955 f33f
00000070: ca97 ccbd 416d ecbf cb82 99bd da1e c9be
00000080: 6f8d 873e 8202 9bbc 2a10 48ba 0dc4 023c
00000090: 2b67 f03f 8463 2ebd 883e f6bc 3c3a 04c0
000000a0: d978 8fbd 6291 3b3f 752a f13d ce79 4ebf
000000b0: c0ae c13c a307 0d3d 315c 58bf 3dc3 17bd
000000c0: bc35 bb3b 3c63 823c 975b b1bd 801c 883f
000000d0: 1a75 c33f 3fc4 983f fa8e be3e 772b 81bf
000000e0: 1848 cebf 8156 24bd 78d7 10bf 1bd0 023f
000000f0: 394f f4bb e130 2fbf d1a0 61bd 0227 1e3d
00000100: fd2e 163d 4943 bebf 4ff6 cdbe 6ad1 e63c
00000110: a927 c1bc 2046 803f 75b0 1c3d 7640 a0bd
00000120: d96e 67bb c19f 083f c336 ac3e 490b 9abf
00000130: 18bc 1f40 0978 64bc ca79 7ebb b368 cebe
00000140: 51b4 da3c 389c 2ebf 40ee 21bc ef10 86bd
00000150: f8a8 da3f 31c1 bb3c 7cb1 4b3c 2593 79be
00000160: 7279 b83e 5edd 8cbc ee93 a2bf d851 813f
00000170: 073d f8be 2f90 76bf db63 12bf 511d a9bd
00000180: e7a1 f7be 8407 d63d b2ee 70bc f504 23bf
00000190: d941 bc3e d979 98bf 7699 a4bd ee7f a1bf
000001a0: 7c7f 00bf c0fd 55be 667f 62bd 92b2 843f
000001b0: 11d7 2cbf 076e 6cbc 8c69 eabd 4371 153f
000001c0: 8af2 aa3e 6d72 9c3f 06cb 4cbb e4c4 2bbf
000001d0: 280e 353d a410 6a3d 772a 34bd 3bd6 95bd
000001e0: d02d 38bd 495e 163d 78b0 aa3c fc9b 62bd
000001f0: dbc6 7a3f 07e5 2ebf dab8 883e c2f3 b63f
00000200: 4ee9 8c3d 2120 02bd bda6 f93c b60e 1dbc
00000210: e8a9 25bf 8022 9e3e 5962 95bf 9ede b3be
00000220: c25b 7abf f19a 8c3f 7cd5 e7be 5d71 bc3c
00000230: 26ff cb3c 1543 4abf 0f7b 56bf 78e7 27bf
00000240: 3459 12bd 28e2 9bbe 1065 acbf 452a b33c
00000250: a8cc 693a 8b6d 173f c1d1 b7ba 5f4a 813b
00000260: ed2b 533f 381b f33e ee13 733d acbd d4bf
00000270: e1c0 843d aa1b 11be b95c 6bbc 7ad5 0dc0
00000280: 8117 e0bf ce13 c53c 66cc 96bd 2b33 f5bb
00000290: de2f d83f 469b a7ba ea0f 663d 3f4c b33f
000002a0: 68c7 bebc b8bf b23e 5c1d 94bf d0f0 a53c
000002b0: d7b6 813c 6889 7c3d 0bdf eabf a07f 863d
000002c0: 1677 ac3f 260d eabc 7e4b 2bbd fdae bb3f
000002d0: b400 0ebf 469b e13f 43bd 3f3f e0c4 413f
000002e0: 78a2 2f3f 7e2f f23e 6a3b 42bf 3028 ba3e
000002f0: 550d ecbc 2612 f8bd c5d2 b23c 42f2 7c3d
00000300: 3c1f b13f f9fb 9b3e c536 3d3e c9c1 c7bc
00000310: cdb7 bd3e 768e 25c0 ecfa 673c 9cf1 2ebc
00000320: 6e65 95bd 7e67 ec3f 6a2a 4fbf ac36 853f
00000330: 0971 c6bf 6254 5abd d5a6 b43d 8d63 3f3f
00000340: 792b 5d3c e3bb 7f3f 9277 ff3c 4924 01bd
00000350: a8a1 ebbe 6635 dd3b 3667 db3c 40fd 1f40
00000360: 9618 243f 268a 86bc 4b6b 5fbf f0a9 11bf
00000370: b4d2 dd3e 1f89 b0bf 52ef f2bf af67 98bd
00000380: a3f7 b23e 3216 41bf ac8b 0e3e 2e01 123e
00000390: 41d6 b23e 7eea 143f 5d9b 08bd 7811 82be
000003a0: c58f dabd 95d9 d33e ee81 96bd baba 353f
000003b0: 48d7 12c0 7be6 92bd 224e 573d f511 83be
000003c0: 32e0 6ebf 1f8b 7d3f 9558 04be 4d18 323f
000003d0: 9038 b03d 34ce 39bb 211d 593e abdf 31bd
000003e0: 2579 023d 9c3e 3c3d 5579 a0bb 0ec6 e03d
000003f0: 7643 9ebd f04b 683e e3d4 0bc0 a745 3440

linear3.bias f4 [4]
0.37450805 -0.32717946 0.23053406 -0.5395538
00000000: 85bf bf3e 1184 a7be 1f11 6c3e 3320 0abf
