rl/TD3_original/exp_Ob/actor_target.pth (torch_old, 341612 bytes, 6 tensors)

linear1.weight f4 [512, 36]
000000 0c f5 d4 bd 7a da 7b bd 34 dc 5e be 44 91 d8 bc
       -0.103983015 -0.061487652 -0.21763688 -0.026436456
000010 69 eb 21 be 9d 00 e4 bc 76 fd 7f bd 93 7b 46 be
       -0.15812458 -0.027832324 -0.06249758 -0.19383077
000020 f6 77 cf 3b aa c0 be bd ac f4 5f bc c0 81 da bd
       0.006331439 -0.093140915 -0.013669174 -0.10669279
000030 36 d1 fd bd 0c 77 10 bd 4c c0 e2 3d b6 40 ba bc
       -0.123934194 -0.035269782 0.11071834 -0.022735935
000040 9f 26 58 3d d9 86 25 be 48 ff 19 be 76 6a f2 bd
       0.052771207 -0.16164722 -0.15038788 -0.11836712
000050 fe d4 f0 bc 54 c2 27 3d dc 12 22 3d 8e 21 b1 bd
       -0.029398438 0.04095681 0.039568767 -0.08648978
000060 bb e3 07 be 2d 62 ed bd b1 2a e2 bd 27 b1 19 3d
       -0.13270466 -0.11590991 -0.11043299 0.03752246
000070 48 58 e0 bd 53 13 0e bc f5 ca 7d 3b ee 68 88 3d
       -0.10954338 -0.008671599 0.0038725708 0.06660639
000080 b8 ab 2f 3d 02 f9 0e 3e 28 93 1e be cf 71 df 3c
       0.042888373 0.13962176 -0.15485823 0.027275948
000090 ca fc 41 be ca 81 00 be 3e 75 c1 bd 9b 6a 4a bd
       -0.18944088 -0.1254951 -0.0944619 -0.049418073
0000a0 d2 c8 36 3e df 88 d1 3c 55 2c 27 be 7e 79 f9 bc
       0.17850044 0.02557796 -0.16325505 -0.03045344
0000b0 4a 86 02 be 48 42 53 bd 8a 3d b2 bd e6 e4 47 3d
       -0.1274654 -0.051576883 -0.08703144 0.04880228
0000c0 95 ba 21 be b6 53 3b be 03 66 41 bd 4b 3b 1b 3d
       -0.15793832 -0.18293652 -0.047216427 0.037898343
0000d0 23 b4 da bd a4 3d 1b be ed 22 2a be b1 b6 6c be
       -0.106788896 -0.15160233 -0.16614886 -0.23116566
0000e0 54 2f 5a be c2 21 83 3d 0e fe b8 bd 35 83 31 3d
       -0.21307117 0.06402923 -0.09032832 0.04333802
0000f0 b4 53 a2 3d ab 71 87 bd 8c 6b 94 3d 53 5b 5b 3d
       0.07926121 -0.06613477 0.072470754 0.05355389
000100 de b1 c6 bd 95 8e 79 be 3c b0 1a bb c5 4f be bd
       -0.09701894 -0.24370797 -0.002360358 -0.092925586
000110 13 08 d3 be c0 0f ed bd 86 20 49 3d df 9f 09 be
       -0.41217098 -0.1157527 0.049103282 -0.13439892
000120 6d 40 e3 bd 08 2a 96 bd cc 70 00 be 28 57 a8 3c
       -0.110962726 -0.073322356 -0.12543029 0.020549372
000130 d2 37 f1 bd 1f 78 99 3d 95 0f 31 3d 4d 00 29 be
       -0.11778225 0.074936144 0.04322775 -0.16504021
000140 80 dd eb 3d 63 ed 9e 3d 76 3e 31 bd 12 cb 7f bc
       0.11516857 0.07760122 -0.043272458 -0.015612381
000150 c0 29 18 bb 25 e5 2f bc 12 38 b2 bd 85 97 31 3d
       -0.0023218244 -0.010735785 -0.08702101 0.04335739
000160 98 68 10 be 4c 75 a2 3d b8 a3 a8 3c 72 f2 3a be
       -0.141024 0.07932529 0.02058588 -0.18256548
000170 55 7c 22 be d3 2a 08 be b8 01 51 be b5 82 2f be
       -0.15867741 -0.13297586 -0.20410812 -0.17139705
000180 fd 92 bb 3d fe 0d 34 be 9c f6 14 be 92 82 f0 bc
       0.09158895 -0.17583463 -0.14547199 -0.029359136
000190 80 d1 2d be e3 98 91 3d 17 2c 58 3c f4 e9 23 3e
       -0.16974449 0.07109239 0.013194106 0.16007215
0001a0 ca 5a c3 3d 85 0a fc 3d 6f 24 49 bc 54 b4 61 3c
       0.09538801 0.12306694 -0.012276753 0.013775904
0001b0 a9 d2 3b 3d 68 d9 24 3d 43 e6 4e bd 95 73 71 3d
       0.045855198 0.040246397 -0.050512563 0.05894812
0001c0 3d 09 e1 bc 3a 58 ff bd 47 bd 4b be f1 20 2d be
       -0.027470225 -0.12468 -0.19896422 -0.16907097
0001d0 d1 06 75 3d 9f 4a d2 3b 96 29 8e 3d 88 49 17 bd
       0.059820954 0.006417587 0.06941526 -0.03693536
0001e0 9d 26 26 bb cb 88 0c bd 8d e3 b2 3d 91 ba ef bd
       -0.0025352605 -0.034310143 0.08734808 -0.117055066
0001f0 a3 75 81 bd c2 b5 3b be 0e e0 3d be 53 a0 c3 bd
       -0.063212655 -0.18331054 -0.18542501 -0.09552064
000200 d4 25 a6 3d be bf ff bc f7 4b 4e be 55 1e e1 bd
       0.08112684 -0.03121936 -0.20146166 -0.109921135
000210 b6 7c f0 bd ce 92 34 be b3 fa 02 3e 9a 08 b9 bc
       -0.11742537 -0.17634127 0.12790947 -0.02258711
000220 c0 e2 a7 bd 91 1b bd 3d c6 87 a4 3c 53 9a 04 3e
       -0.08197546 0.092337735 0.020084273 0.12949495
000230 86 4f 3d bd 91 7b ed 3d 86 78 0b 3b d6 d6 87 3d
       -0.046218418 0.11595834 0.0021281554 0.066327736
000240 4a 95 b3 bd b3 16 0f be c0 85 51 bc 31 a4 2d be
       -0.08768709 -0.13973503 -0.012788236 -0.16957165
000250 73 33 05 be 0b e5 1f 3d 2a 47 4c 3b 4b 98 58 3d
       -0.13007908 0.03903679 0.0031170347 0.052879613
000260 67 99 c5 bc 1f 01 58 3d 13 ec 06 be 90 55 92 bd
       -0.024121 0.052735444 -0.13175993 -0.07145226
000270 cf 20 07 bd 78 9e 13 be 12 22 fe bd 98 d7 a3 3d
       -0.032990273 -0.1441592 -0.12408842 0.080001056
000280 60 ed d3 bd dd c0 37 3d 62 41 f8 3d 7c 65 db bd
       -0.1034801 0.044861663 0.12121846 -0.10712716
000290 78 15 15 be 62 79 b7 bc e8 8d a2 3d cd eb fa 3d
       -0.14558971 -0.022396747 0.07937223 0.12252007
0002a0 dd 1e f9 bc 4c 45 11 be 21 0d 2f 3d 7a 6d f0 bd
       -0.030410225 -0.14186591 0.04273713 -0.11739631
0002b0 33 38 98 3d 4c 19 a9 3c 56 58 c1 3d be c1 07 be
       0.07432594 0.020641945 0.09440677 -0.132575
0002c0 66 5a c3 3d 6a 0c 02 3e b2 80 8e 3d c8 d5 62 3c
       0.095387265 0.12700048 0.069581404 0.013844915
0002d0 c1 19 bc 3d 05 82 ff 3c 28 09 dc bd d8 52 5d bd
       0.091846 0.031189928 -0.10743934 -0.054034084
0002e0 6a a5 0e 3d c3 72 02 be 3a 4c 81 3c 77 a4 d2 3b
       0.03482572 -0.1273909 0.015783418 0.006428297
0002f0 a1 35 22 be 50 75 d4 bd 8c e5 ba 3d ab f8 d6 3d
       -0.1584077 -0.10373938 0.09125814 0.104966484
000300 2b 7d 03 be d1 bf ab bd ba 0d c1 3d e8 0c 52 be
       -0.12840717 -0.083861955 0.09426446 -0.20512736
000310 8b 56 cb bd ac ad 96 bd 1d 9e 29 bd 4d ad ba 3d
       -0.09928616 -0.07357344 -0.041410554 0.09115086
000320 77 5c 05 be ca ed b7 bb 7f c7 c5 bd f1 c7 66 be
       -0.13023554 -0.0056130635 -0.096571915 -0.22537209
000330 5b 34 92 3d 0f 39 9d 3d 7a 15 47 3c 73 9b 55 3d
       0.07138892 0.07676899 0.0121511165 0.0521502
000340 26 b4 8c 3d e0 ae ec 3c 00 2a 59 bc f8 5d a4 bc
       0.06870298 0.02889198 -0.0132546425 -0.020064339
000350 df 90 18 bd 02 cc 30 3d 4c 59 56 be fd 2f 66 bd
       -0.037247535 0.043163307 -0.20932502 -0.05619811
000360 b2 2b bf bd af 7a 84 bd 86 07 f0 bd 2a 2e cc 3d
       -0.09334506 -0.064687125 -0.11720185 0.099697426
000370 b5 e3 23 be 40 f0 52 bd ac 33 a2 3c 82 cc 8b 3d
       -0.16004832 -0.05149865 0.01980003 0.06826116
000380 f7 d2 04 be 13 a9 4d be 81 f1 b0 3c 9a c8 cb 3d
       -0.12971102 -0.20084028 0.021599533 0.09950371
000390 da d0 ba bd 45 3d 26 be f5 05 f0 3d 14 2b c9 bb
       -0.091218665 -0.1623431 0.11719886 -0.0061391685
0003a0 70 35 1b be b5 da b1 3d 32 08 87 3c ff 6f 85 bd
       -0.15157104 0.08684293 0.0164834 -0.06515502
0003b0 c5 66 f6 3d f1 6f 64 be 27 a5 1b be 08 7a 11 be
       0.120313205 -0.22308327 -0.1519972 -0.14206707
0003c0 08 88 97 3d d0 96 5d be be 50 05 be 24 b9 2e 3d
       0.07398993 -0.21639562 -0.13019082 0.042657033
0003d0 8f 4b 1c be e7 07 17 3c 48 ed 9c bd 36 18 c7 3d
       -0.15263198 0.009218193 -0.07662445 0.09721415
0003e0 e6 d0 82 3d 2b 57 da bd 03 60 9b 3c a4 99 54 bd
       0.063875005 -0.10661157 0.01896668 -0.051904336
0003f0 50 20 de bd f5 c7 31 3c 85 6e 23 be d8 25 18 be
       -0.10846007 0.010850896 -0.15960129 -0.14858186

linear1.bias f4 [512]
000000 65 c2 21 bd 34 54 64 3d bd fd e4 bc a4 a0 97 bd
       -0.03949203 0.055744365 -0.027953023 -0.07403687
000010 39 65 68 bd 19 56 ea bd a2 90 89 3d 5f c4 45 bd
       -0.05673716 -0.11442203 0.0671704 -0.048282977
000020 66 14 3e be 38 bb a2 3b 3d 5c 68 bd 4a 3e b5 bd
       -0.18562469 0.004966166 -0.05672859 -0.08849771
000030 e5 85 e9 bc d7 97 45 bc fc ff d4 bc 1b 4c e8 3d
       -0.028506229 -0.012060127 -0.02600097 0.11342641
000040 99 67 65 be 81 2f 6f be 40 86 53 be cb f5 d7 3d
       -0.224028 -0.23357965 -0.20656681 0.10544928
000050 45 3c e2 bd cb df 4a bd bf 34 9b bc b6 6b 77 bd
       -0.11046652 -0.04952983 -0.01894605 -0.060405456
000060 8d 55 20 be 46 0b 80 bd 63 0b c1 be 77 16 40 be
       -0.15657635 -0.0625215 -0.37704 -0.1875857
000070 74 84 9d bd 17 4a 7d 3e b2 80 b5 bd 6c 7c 99 bd
       -0.07691279 0.24735294 -0.08862437 -0.07494435
000080 2c 08 96 3d 9d b5 c9 3d ee 30 26 be 27 5d 0e bd
       0.073257774 0.09849093 -0.16229603 -0.034756806
000090 c3 bb 84 3d cf 8b 0a be 27 16 05 ba 04 d1 1d be
       0.06481125 -0.13529895 -0.00050768483 -0.15411764
0000a0 f5 16 29 be f7 93 82 bd b2 64 02 3c 0e 75 0e be
       -0.16512664 -0.06375878 0.007958578 -0.1391184
0000b0 d5 a4 2e be 6e 16 03 3e c6 fa 07 be c7 62 d8 3c
       -0.17055066 0.12801525 -0.13279256 0.026414288
0000c0 ff 87 41 be 75 8f 49 be 14 92 15 be fc 1d 10 be
       -0.18899535 -0.19683631 -0.14606506 -0.14073938
0000d0 38 d8 59 be 9b 2b c8 bd b0 2e 19 be 3f 4c cc bc
       -0.21273887 -0.09773942 -0.14959216 -0.0249387
0000e0 99 3a 39 3b b1 a3 2b be 68 17 23 3d 37 06 0a be
       0.0028263687 -0.16761662 0.039817244 -0.13478933
0000f0 47 e0 81 bc 55 63 7e bd 74 19 1a be ef 36 48 be
       -0.015854014 -0.06210645 -0.15048772 -0.19552206
000100 7a 04 35 be 63 38 65 3e d7 9e 1d 3e 17 f7 0b be
       -0.17677489 0.22384791 0.15392624 -0.13668476
000110 4b 27 16 3d 25 eb 2e be 53 04 84 bd 4d a3 8f bb
       0.036658566 -0.17081888 -0.06446137 -0.0043834806
000120 0f db ae 3d 3b 3d 4f be 84 18 69 3d ca ec 33 be
       0.08537876 -0.20238201 0.056908146 -0.17570797
000130 8b cb 04 bd 45 b1 e3 bd fc 37 94 bc f0 b8 1c bc
       -0.032420676 -0.11117796 -0.018093102 -0.009565577
000140 0f fd 4d be 67 25 80 3c e1 25 2e bc 0a 3d 80 bc
       -0.20116065 0.015642835 -0.010629148 -0.015654106
000150 41 f0 eb bd fd 67 e5 bd 03 ca c1 bd ce 1b 33 be
       -0.11520434 -0.11201475 -0.09462359 -0.17491075
000160 65 7d a0 bd 84 a2 92 bc 5f 03 08 be 83 65 98 3d
       -0.07836417 -0.01789976 -0.13282536 0.07441237
000170 6c 49 ee 3d c5 f1 63 be f2 3b 01 3d 4a 68 c7 3d
       0.11635098 -0.22260197 0.03155131 0.097366884
000180 57 7b 90 3d 42 cd 75 be a6 a0 b0 bd cc b1 2a 3c
       0.07054775 -0.24004081 -0.08624391 0.010418367
000190 22 11 2b be b1 3f 2b bd 7e bd 8f 3c d7 45 42 be
       -0.16705754 -0.041808788 0.017546412 -0.18971954
0001a0 3c 3c a5 3d d6 f7 8e 3d 2a d1 a5 3d 8d 88 19 bd
       0.080681294 0.06980865 0.080965355 -0.03748374
0001b0 ed b8 6a bd 9c 2f 18 be 21 61 21 be 8e 99 f6 bc
       -0.057305265 -0.14861912 -0.15759708 -0.030102517
0001c0 85 19 ed be f1 00 43 be 35 cd 2d be 83 21 42 be
       -0.46308532 -0.19043328 -0.16972812 -0.18958096
0001d0 30 93 1b be ab 57 dc 3d a4 6d 53 be aa 39 88 3d
       -0.15192866 0.10758909 -0.20647293 0.066516235
0001e0 6e ee b8 bc 65 f4 3a 3c 03 5c 0b be b2 a5 33 be
       -0.02257463 0.011410807 -0.13609318 -0.17543676
0001f0 1a 26 72 bc a4 af a1 3d 80 2f af 3d 3a 4e 80 bd
       -0.014779592 0.07894829 0.08553982 -0.062649205
000200 e8 92 1d bd ff 28 d5 3d 09 94 69 3d 53 61 41 be
       -0.03847018 0.1040821 0.057025943 -0.18884782
000210 d9 a4 79 3d 5a a7 83 3d 08 9a 2a bd 1a ce 88 3c
       0.060948227 0.06428404 -0.041650802 0.01669984
000220 64 f7 14 be da f3 00 be 2c cf 93 bc 1f 60 44 be
       -0.14547497 -0.12593022 -0.018043123 -0.19177292
000230 66 c7 72 be 5b 3f 0c be 18 a2 15 3e 66 9d fc bd
       -0.23708877 -0.13696043 0.14612615 -0.12334709
000240 4a e0 33 be 77 da 09 be ce 84 87 3d 5b 27 90 3c
       -0.17566028 -0.13462244 0.06617127 0.017596891
000250 d3 ac 03 be e4 41 6c 3d c1 89 ba 3c 00 eb ef 3b
       -0.12858896 0.057680026 0.022770764 0.0073217154
000260 62 d2 fd bd 84 85 db bd 3d 29 d4 bc e3 50 6a 3d
       -0.12393643 -0.107188255 -0.02589857 0.057206046
000270 2d 08 3c 3d b2 b9 f8 bd 3c 6d 21 3b db 98 94 3d
       0.045906235 -0.121447936 0.002463176 0.07255717
000280 ae 89 ce 3d d7 b0 05 be b4 58 9d be 0c bf 1b bd
       0.10084854 -0.1305574 -0.30731738 -0.038023993
000290 4e 79 cb 3c f5 2b b2 3a 2e 93 93 3c 37 5b 40 be
       0.024838116 0.0013593422 0.018014517 -0.18784796
0002a0 d6 00 08 3e ae c5 44 3d 54 f7 9a bd 11 60 e3 bd
       0.13281569 0.048040085 -0.07566705 -0.111023076
0002b0 a3 a0 28 3e f4 04 93 bd 83 76 d1 3d 1f 79 84 bd
       0.16467528 -0.07178679 0.102276824 -0.064684145
0002c0 10 9c 19 3e 13 ce b9 be 23 d6 cc bc 35 d1 a4 bd
       0.1500094 -0.36290035 -0.025004452 -0.080477156
0002d0 cf a9 05 bd 1d d0 ab bd 7e 50 84 3d 2b c0 c7 bd
       -0.032632645 -0.08389304 0.06460665 -0.0975345
0002e0 fc 49 91 bc 2a e7 82 3d 62 07 01 be 14 24 1f be
       -0.017735474 0.06391747 -0.12600473 -0.15541106
0002f0 b3 bc c4 bd f2 de 37 be c5 e5 be 3d b2 86 30 3c
       -0.09606304 -0.1795614 0.09321169 0.010774301
000300 d6 0c 3f be 70 1c 5b be 5e d9 8e 3c 84 be 9e bd
       -0.1865724 -0.21397567 0.017437633 -0.07751182
000310 2a 8b 70 bd 29 e0 08 3e 9b 88 1e 3d 5b 14 8f bc
       -0.058726467 0.1336676 0.038704496 -0.017465761
000320 8a 19 38 be 92 6f 48 3d 91 72 2c 3d 10 f9 a0 be
       -0.17978492 0.048934527 0.042101447 -0.3144002
000330 b6 7c c9 3c 98 fe 00 be 93 c0 07 be 96 75 79 bd
       0.0245956 -0.1259712 -0.13257055 -0.060903154
000340 03 9f 44 be 86 1b 21 bd fd 9e b9 3c 38 fd 57 be
       -0.19201283 -0.03933289 0.02265882 -0.21092689
000350 78 dc 6a 3d 72 ff 3c be c9 19 f1 bd 01 f2 37 bd
       0.05733916 -0.1845682 -0.11772496 -0.044908527
000360 2c 66 2f bd 7f a7 42 be 37 7a 18 3d 96 62 f8 bd
       -0.042822048 -0.19009207 0.03722593 -0.12128179
000370 83 61 88 bd b4 74 10 bd 45 00 8f 3d ce 85 9b be
       -0.06659224 -0.035267547 0.06982473 -0.30375522
000380 a2 21 b6 bd 6f be 40 be a0 a8 13 be 8f 96 03 be
       -0.08893134 -0.18822645 -0.14419794 -0.12850402
000390 c7 0c 05 bd 0f 64 1d be 0a a4 bc 3c ec 93 13 be
       -0.03248289 -0.153702 0.023027439 -0.14411896
0003a0 8a b7 3f be 50 83 5a bd 2f 0c 11 be c9 14 e5 bd
       -0.18722358 -0.053347886 -0.14164804 -0.11185605
0003b0 b6 c8 b4 bd 90 7c 58 be bc a2 16 bc ef 63 0d be
       -0.08827345 -0.21141267 -0.009194072 -0.13807653
0003c0 cc a5 1c be 30 2d 13 bc e2 0e 76 bb bf 42 d8 3d
       -0.15297621 -0.0089829415 -0.0037545492 0.10559606
0003d0 9a 11 f2 bd b2 b8 34 bd cf c3 c9 bb 1a e5 fb 3c
       -0.118197635 -0.04412145 -0.0061573754 0.030748893
0003e0 ab dd 0e be 69 62 7c 3d dd f9 21 be 76 f3 f0 bd
       -0.13951747 0.06161729 -0.15817972 -0.117651865
0003f0 42 36 f1 bd f6 35 c1 3c ac 4f 55 bd 2e 73 3f be
       -0.11777927 0.0235853 -0.052077934 -0.18696281

linear2.weight f4 [128, 512]
000000 1f 56 8e bc 71 01 2c bb ca 39 7c 3c ab ed 43 bd
       -0.01737505 -0.0026245976 0.015394637 -0.04783408
000010 67 1c c5 bc 74 cd 15 3b ac 7c 9a bb 10 38 99 bc
       -0.024061395 0.0022858055 -0.004714569 -0.01870349
000020 a9 04 a3 bc 20 7e 98 bb 09 d0 64 bd ed 5a e9 3c
       -0.019899683 -0.004653707 -0.05586246 0.02848574
000030 c9 50 f4 bc d6 bd 07 3d 79 70 63 bd e9 48 a1 bd
       -0.029823678 0.033140026 -0.055527184 -0.07875235
000040 7f 12 1f 3c 1f f6 44 bd fe 59 38 bd 28 fc 19 3d
       0.009709 -0.048086282 -0.0450077 0.03759399
000050 a3 f3 85 bb 9b af 0b 3d 5f df 0d bc 45 1d 23 bc
       -0.0040878817 0.034103017 -0.008659213 -0.009955709
000060 10 2c db 3b 22 e2 b1 bd 05 43 a4 3d d6 be 32 bd
       0.0066886023 -0.086857095 0.080205955 -0.043639027
000070 5e ff 77 bd ec 02 a7 3d 02 04 f0 3c c2 75 b5 bc
       -0.06054627 0.08154854 0.029298786 -0.022150878
000080 fd 54 3d 3d 80 21 80 be 9f a1 10 3d aa 31 c1 3c
       0.04622363 -0.25025558 0.035310384 0.023583252
000090 9e c5 31 bd f7 a8 cb bc 0a df c7 3b 69 46 b0 ba
       -0.043401353 -0.024860842 0.0060995864 -0.0013448718
0000a0 3e fc 77 bc 87 89 44 bc 67 d7 83 bb 6e a3 38 3c
       -0.015135823 -0.01199568 -0.0040234807 0.011269433
0000b0 53 17 85 bc 0a ba f0 3b 99 08 20 3d b8 67 19 bd
       -0.016246473 0.0073463963 0.0390707 -0.03745243
0000c0 58 f3 6e bc 83 5b 89 bd ae df 08 3c 98 5d 16 bd
       -0.014584385 -0.067069076 0.008354111 -0.03671035
0000d0 ec 23 95 3c ef bf 86 3c 87 69 81 3c fd 83 f1 bc
       0.018205605 0.016448943 0.01579739 -0.029481882
0000e0 e6 24 b5 3c 73 f0 0b bd c6 75 c0 ba 6f f8 07 3d
       0.022112321 -0.034164857 -0.0014683537 0.03319591
0000f0 ec b9 2e bd c5 d9 e7 bd 56 06 3e 3c 1c 86 d4 bc
       -0.042657778 -0.11320833 0.01159819 -0.025942855
000100 6f 71 91 3c e3 bc 8b bd 67 f0 5c bd bf ef d0 bc
       0.017754285 -0.06823137 -0.053940203 -0.025504945
000110 65 fe b0 3b 5f 15 85 3c 6a 30 bc bc 59 74 a6 bc
       0.00540142 0.016245542 -0.022972304 -0.02031915
000120 db 00 8c bd dd 6e 34 3d ab cc 95 bc 8c b0 ae bb
       -0.06836101 0.04405104 -0.01828607 -0.0053311046
000130 aa a5 36 bd 30 b0 eb bc 96 dd c9 bc 47 06 04 3d
       -0.044591583 -0.028770536 -0.024641793 0.03223255
000140 99 3a f9 3c 60 06 ed bc 1d 49 33 bb 43 54 1e 3c
       0.03042345 -0.028933704 -0.0027356811 0.009663644
000150 06 22 36 bd 27 5c ca 3c ed 3c 2e bd ef 3a 18 3d
       -0.04446604 0.024702145 -0.042538572 0.03716558
000160 79 c2 ff 3c df eb 0d 3d 09 50 a6 bd 21 00 2d bd
       0.031220661 0.034648772 -0.08120734 -0.04223645
000170 75 24 6d bb 83 c9 d8 3c a9 49 24 bd 61 18 2a bd
       -0.003618506 0.026463276 -0.04010931 -0.041527156
000180 de d2 0d 3c fa 88 ba bc 68 f4 6c bd a7 c6 8b bd
       0.008656232 -0.022770394 -0.05785027 -0.06824999
000190 1d 9c 21 bd 32 56 ba 3c 82 81 32 3d 5e 5a 06 3d
       -0.03945552 0.02274618 0.04358054 0.032801025
0001a0 ea 6c cd bc b0 f9 4c 3b fa 8a c2 bd f8 8b ad 3b
       -0.025076348 0.0031276755 -0.09499164 0.0052962266
0001b0 a8 20 d6 bc 41 d7 eb bb 0e bf 8f 3c ec 32 1f bc
       -0.026138619 -0.007197291 0.017547157 -0.009716731
0001c0 20 8a 2f 3d b4 ae d7 bd 36 3e c9 3c 34 6e 68 3c
       0.042856336 -0.10531369 0.024565797 0.014186431
0001d0 e7 22 c6 bc 71 ce 67 3d a8 9b 67 bc cf aa c9 3c
       -0.024186565 0.056593362 -0.014136232 0.02461758
0001e0 51 53 bb 3c 0c 33 93 3c 64 a1 1a 3d 75 2e bc 3c
       0.022866877 0.017968677 0.03775157 0.022971371
0001f0 27 a8 8e bb ff 68 9b bc 6b ee 46 bc 67 98 01 bd
       -0.0043535414 -0.018970964 -0.012141804 -0.031639483
000200 80 a7 db bc cd 02 f3 ba 56 b9 8e 3c ba 8f fc bc
       -0.026813269 -0.0018540263 0.01742236 -0.030830253
000210 38 05 1f bd 41 21 28 3d 20 bf 62 bc 5b 55 c0 bb
       -0.038823336 0.04104734 -0.013839513 -0.00586955
000220 8c fd 5d ba 14 d0 d3 3c 84 8f 6a be b6 97 38 bd
       -0.00084682624 0.025856055 -0.2290631 -0.045066558
000230 b0 07 ac 3c 0f 53 88 bc de 52 81 3b 17 3c 0d bd
       0.02099976 -0.016641168 0.003946646 -0.034481134
000240 63 f4 48 bc 80 a9 23 bd 89 39 62 bd c3 bd 42 bb
       -0.012265298 -0.03995657 -0.05523065 -0.0029715158
000250 df 2e 47 bd 80 7c 1e bd 1d 22 2d bd 16 9a 75 3c
       -0.048628684 -0.03869295 -0.04226886 0.01499035
000260 63 71 09 3d 65 aa 25 3c ec 85 e6 3c df 08 45 be
       0.0335554 0.010111426 0.02814003 -0.19241665
000270 ff d9 84 bc 60 0a e4 bb 33 89 d7 3c 06 27 ca 3c
       -0.01621723 -0.0069592446 0.026310539 0.024676811
000280 35 47 bb 3c a1 10 64 bd 71 d9 3a bb 6a d7 b5 bd
       0.022861103 -0.05567992 -0.0028510953 -0.088789776
000290 d2 95 0b ba 97 14 45 bd 32 3d fa bd d7 9e 88 bb
       -0.0005324754 -0.04811534 -0.12218703 -0.004169326
0002a0 5a 44 c7 3b 1c 21 10 3d b8 92 af 3a 66 06 38 3c
       0.006081146 0.035187826 0.0013395166 0.011231994
0002b0 49 78 7c 39 9d cb f0 bc 1f b7 82 bc 5a 51 30 bc
       0.00024077402 -0.029393965 -0.01595646 -0.010761583
0002c0 ba 28 09 3d dd ec b8 bc 22 08 34 bd 23 13 47 bd
       0.033486106 -0.022573883 -0.04395307 -0.048602235
0002d0 29 1b 32 bc 69 a4 f1 bc 01 a9 7a bc bf cc 41 bd
       -0.010870733 -0.029497342 -0.015299083 -0.0473144
0002e0 af f8 88 bc a8 f4 54 ba 6b 13 1e bd 5c 31 9f bc
       -0.016720144 -0.0008123615 -0.038592737 -0.019432716
0002f0 c7 e9 8e bd f2 ca b2 bb 40 9f 13 bd e4 e9 90 bc
       -0.06978183 -0.005456322 -0.036040545 -0.017689653
000300 13 71 ce 3c d3 73 99 3c 28 eb e0 3b 58 c0 d1 bc
       0.025200402 0.018731987 0.0068639703 -0.025604412
000310 08 b2 90 3c 79 bb 3c be e1 88 ea 35 7f ed 47 3d
       0.017663017 -0.1843089 1.7474196e-06 0.04881048
000320 82 9a b2 3c de 6e b4 3c 2b 8e 15 be a8 8a d5 bd
       0.02180219 0.022025522 -0.14605014 -0.10426837
000330 fe c5 3f 3c 43 8a 95 3c 13 63 08 3c 10 3d 54 bc
       0.01170492 0.018254405 0.008324402 -0.012954012
000340 66 18 35 bd 8c 4a 26 bd d9 29 28 bd a5 8b a7 bc
       -0.04421272 -0.040598437 -0.041055534 -0.02045233
000350 07 6b 07 3d 96 be 8a 3c 9a 28 3c be 5d 92 2c be
       0.033061054 0.016936582 -0.18374863 -0.16852708
000360 00 7b 98 bd 2a a2 c1 3c 31 e7 26 bd a9 48 a0 bc
       -0.074453354 0.023636896 -0.040747825 -0.019565897
000370 9c 9e ab bb 55 c5 b3 3c f8 07 11 bd 17 80 8a bc
       -0.0052374136 0.021944681 -0.03540799 -0.016906781
000380 2e ed 0c 3b 0c a3 51 3d 01 df 71 3c 52 a0 2a be
       0.0021503675 0.051180884 0.014762641 -0.1666272
000390 67 cb 1e bc 13 02 54 3d fc 3e 97 3c b4 11 d4 3c
       -0.00969205 0.05175979 0.01846265 0.025887348
0003a0 68 e4 de 3c c6 10 bc 3c f7 4e 41 be 15 b1 2d bd
       0.027208522 0.022957217 -0.18877779 -0.042405207
0003b0 fc a2 57 b9 95 a1 3a 3d ac 4e 91 3c e4 66 51 bd
       -0.00020564714 0.045564253 0.017737709 -0.051123515
0003c0 b5 14 a0 3c 5f b8 47 bd 80 b7 90 3c 98 7a a6 3c
       0.019541124 -0.048759814 0.017665625 0.02032213
0003d0 38 a6 19 bd 1b 68 19 bd da 77 0d bc e5 a4 28 bd
       -0.037512034 -0.0374528 -0.008634532 -0.04117288
0003e0 5e 6b 7f bd 29 ed 28 3d 35 0f e3 bd 67 31 ce bb
       -0.062358253 0.0412418 -0.11086885 -0.0062925103
0003f0 df bb 55 bd fe 47 bb 3c 64 85 e7 bb 66 46 be bc
       -0.05218112 0.022861477 -0.007065462 -0.023226928

linear2.bias f4 [128]
000000 63 2a c0 bd 17 a4 04 bd 79 a5 af bd 28 03 1d bd
       -0.093830846 -0.03238305 -0.08576483 -0.03833309
000010 70 e6 3f be c5 07 c8 bd 4f 66 be 3e 76 14 f8 bd
       -0.18740249 -0.09767107 0.3718743 -0.121132776
000020 0b a0 88 be 69 06 03 bc 4a 3d d5 bd 46 2e 35 bd
       -0.26684603 -0.007997134 -0.104120806 -0.044233583
000030 3d b8 e1 bd 42 96 03 3f 93 98 1b 3c 7e 03 99 bd
       -0.11021469 0.5140115 0.009496826 -0.07471369
000040 1f 34 43 bd f3 18 e9 be 55 08 4e 3f fb 86 8b bd
       -0.04765713 -0.45526847 0.80481464 -0.06812855
000050 a8 08 9a bd 7a 11 89 bd 93 a1 55 bd d8 68 d1 bc
       -0.07521182 -0.066927865 -0.052156042 -0.025562689
000060 81 a2 1a 3e cf ce ad be ce 68 bb bd 6d 90 89 3d
       0.15101053 -0.33946845 -0.09150849 0.06717
000070 51 68 ab bc 97 4d c2 3e fe bb 80 bd 77 16 39 bf
       -0.020923765 0.3794982 -0.06285857 -0.72299904
000080 75 68 33 be 22 ed 84 bd 77 13 8d bd 70 4d 17 be
       -0.17520316 -0.06490542 -0.06888478 -0.14775634
000090 60 79 e3 be ad 6b a1 bd 5d aa 68 bd 86 3e 79 3e
       -0.4442854 -0.07881866 -0.056803096 0.24340257
0000a0 99 93 a6 bd fe 81 02 bf b1 c9 6d bd 2e f1 03 bf
       -0.08133621 -0.509796 -0.058053676 -0.51539886
0000b0 5e 4a b8 bd 86 d0 74 bd bc a1 8a be 3e 16 bc bd
       -0.089985594 -0.059769176 -0.2707652 -0.0918393
0000c0 47 4e c6 3d af fe 87 bd 31 b4 22 bd 17 36 20 3e
       0.09682899 -0.06640374 -0.039722625 0.15645634
0000d0 9a 10 da be 45 38 ed be 50 3b 89 3e d1 4f 0c bd
       -0.4259079 -0.46331993 0.26803064 -0.034255806
0000e0 21 ff b6 be e0 59 91 3e 36 3c af bd 90 da b2 be
       -0.35741523 0.28388882 -0.08556406 -0.34932375
0000f0 a2 45 80 bd 8a 0b a6 3e a4 de 95 bd e9 57 ab bd
       -0.062632814 0.3243068 -0.07317856 -0.08366377
000100 a9 02 0e 3e 93 1a be be 84 fb 03 3f 51 62 8d 3d
       0.13868202 -0.3712965 0.5155566 0.06903518
000110 2d 1b b0 3d 9f 6a e0 bd d0 16 51 bd 94 1c 1a bd
       0.08598933 -0.10957836 -0.051047146 -0.03762491
000120 b1 9d ac bd 43 3a 63 3d 22 4f be 3e 92 87 63 be
       -0.08428515 0.055475485 0.3716975 -0.22219685
000130 d9 40 b7 be 25 21 66 bd c0 d7 94 bd 23 55 5d 3f
       -0.35791662 -0.056183953 -0.072677135 0.86458033
000140 79 4c 69 bd b2 0d d2 be 3f c0 01 bd 43 61 87 bd
       -0.056957696 -0.41026074 -0.03167748 -0.06610348
000150 a2 ea 8c be 53 42 02 be 9b 4a c7 bd c8 88 88 bf
       -0.2752276 -0.12720613 -0.09731027 -1.0666742
000160 34 fb a2 3d 47 be 0f be a5 26 2d be 57 fe cc be
       0.079580694 -0.14037429 -0.16909273 -0.40037796
000170 e6 81 ec 3e 51 89 38 3f 63 13 dc bd 7e dd b9 bc
       0.46192855 0.7208453 -0.10745885 -0.022688624
000180 0e 41 f2 be 32 fb d7 be 38 54 16 be 0a 99 02 3f
       -0.47315258 -0.42183834 -0.14680564 0.5101477
000190 fa bc 02 bf 33 89 2d be 7a bb 3c bd 0d 65 4d bd
       -0.51069605 -0.16946869 -0.04607723 -0.050145198
0001a0 e3 05 01 3e 95 5d d9 be 3d 37 2a bd 88 ff 0a bf
       0.12599902 -0.4245421 -0.041556586 -0.5429616
0001b0 2a 6f 57 be 06 f5 f0 bb 1e 47 3d 3e ae fe 80 3e
       -0.210385 -0.007353428 0.1848416 0.25194305
0001c0 6b bd e1 be 5d 06 eb 3e 7c 1e 52 bd 12 c0 58 be
       -0.44089827 0.45903292 -0.051298603 -0.21167019
0001d0 78 33 90 bd 29 62 e2 bd 94 62 5f be 9f 7f 85 bd
       -0.07041067 -0.11053879 -0.21814948 -0.065184824
0001e0 5b 1e 85 bd 87 5d c3 bd 68 59 d8 bd 94 e2 92 bd
       -0.064999305 -0.09539323 -0.10563928 -0.071721226
0001f0 29 ed 9f be b5 58 d4 bd 81 3d 85 be c5 0a b6 bd
       -0.31235626 -0.10368482 -0.26023486 -0.08888773

linear3.weight f4 [4, 128]
000000 a4 b1 29 bd 2b 58 de 3c eb a0 95 bd 44 ce 6b bc
       -0.041429177 0.027141651 -0.07306083 -0.014392439
000010 8d 18 0b c0 5e c0 85 be c4 2e 0d 3f 27 ac de bd
       -2.1733735 -0.26123327 0.55149484 -0.10872679
000020 01 9c 83 be 06 b6 97 3f 4d ad 1e be f9 6f fa bb
       -0.2570496 1.1852424 -0.15495797 -0.0076427427
000030 57 9f ca 3d 0a d2 eb 3e 99 27 0d 3f 04 b6 8c be
       0.09893673 0.46058685 0.55138546 -0.27482617
000040 cb a6 07 bd a7 20 e5 bd b8 db 9f bf e2 f4 0a bc
       -0.03311805 -0.111878686 -1.2488928 -0.008481236
000050 eb 81 96 bd 42 2c 08 3d b8 26 33 3d 39 a9 be bd
       -0.07348999 0.033245333 0.043738097 -0.093096204
000060 cf cf 89 3f e2 06 41 3f 1d 43 b4 3c ed 37 f6 3f
       1.0766543 0.7540113 0.022004658 1.9235817
000070 06 98 cc bd f8 ea eb bf 0f 83 99 bd 84 8f cc be
       -0.09989934 -1.8431082 -0.074957006 -0.39953244
000080 bd 7b 93 3e a7 02 9b bc 42 10 48 ba 66 c4 02 3c
       0.28805342 -0.018922163 -0.0007631817 0.007981395
000090 28 2f f1 3f 98 63 2e bd ed 3e f6 bc d1 43 04 c0
       1.8842516 -0.04257545 -0.030059302 -2.0666392
0000a0 22 79 8f bd f0 4b 3c 3f 26 2a f1 3d 0e 96 4e bf
       -0.07005526 0.7355337 0.11775617 -0.80697715
0000b0 ab ae c1 3c be 07 0d 3d 41 c4 56 bf 67 c3 17 bd
       0.023642858 0.03443121 -0.8389321 -0.037051585
0000c0 eb e6 a4 3c 86 63 82 3c c1 5b b1 bd f7 43 88 3f
       0.020129642 0.015916597 -0.08660079 1.0645741
0000d0 1c b9 c4 3f 37 e1 99 3f cf e4 be 3e 33 dc 81 bf
       1.5368991 1.2021855 0.37283942 -1.0145324
0000e0 08 f6 ce bf 24 49 27 bd 36 cb 11 bf 40 6d 04 3f
       -1.6168833 -0.040841237 -0.569507 0.517292
0000f0 3a 4f f4 bb c3 e5 2f bf cd a0 61 bd f4 26 1e 3d
       -0.0074557336 -0.68709964 -0.055084992 0.038611367
000100 62 b9 2d 3d 1c ed bb bf 84 bb c6 be ca 44 e7 3c
       0.042413123 -1.4681735 -0.38814938 0.028231043
000110 99 db a4 bc e8 09 83 3f bb b0 1c 3d d8 40 a0 bd
       -0.020124244 1.0237398 0.03825448 -0.07824868
000120 bd 6e 67 bb 8c 86 0a 3f c6 00 ac 3e e2 df 99 bf
       -0.0035313808 0.5411155 0.3359434 -1.2021449
000130 7a f2 1f 40 c1 77 64 bc 92 79 7e bb e1 21 d2 be
       2.4991746 -0.013944567 -0.0038829786 -0.41041473
000140 87 b4 da 3c 00 20 2f bf 25 ee 21 bc 52 11 86 bd
       0.02669741 -0.68408203 -0.009883438 -0.06546272
000150 a2 04 dd 3f 79 c1 bb 3c 2b b1 4b 3c d6 0e 79 be
       1.7267039 0.022919403 0.012432377 -0.24322066
000160 90 24 bb 3e 8e dd 8c bc 1a 46 9f bf cb 82 81 3f
       0.36551332 -0.01719549 -1.2443268 1.011804
000170 04 74 f8 be 8f 2b 78 bf 03 64 12 bf 98 1d a9 bd
       -0.48526013 -0.96941465 -0.57183856 -0.08257598
000180 01 a2 f7 be 59 26 ce 3d c5 ee 70 bc ab e4 21 bf
       -0.48365787 0.10065908 -0.014705365 -0.63239545
000190 9a 41 bc 3e 57 cc 97 bf bc 99 a4 bd 77 5d 9f bf
       0.367688 -1.1859235 -0.08037135 -1.2450398
0001a0 a0 a1 fc be c0 f9 51 be d8 7f 62 bd 27 0a 85 3f
       -0.4934206 -0.20505428 -0.055297703 1.0393723
0001b0 4e 3b 2e bf 6c 6e 6c bc b5 74 ee bd be 6a 14 3f
       -0.6805924 -0.0144306235 -0.11643354 0.57975376
0001c0 54 b3 aa 3e 04 26 9e 3f 32 cb 4c bb a2 57 2b bf
       0.33339942 1.2355351 -0.0031249044 -0.6693059
0001d0 3d 0e 35 3d f4 10 6a 3d 82 2a 34 bd 0c d6 95 bd
       0.04420303 0.057145074 -0.04398585 -0.07316217
0001e0 3d 2e 38 bd 5f 5e 16 3d b8 b0 aa 3c 5c 9c 62 bd
       -0.04496597 0.036711093 0.02083622 -0.055324897
0001f0 a1 2e 7d 3f 57 06 32 bf 95 9d 8e 3e 2f e5 b7 3f
       0.98899275 -0.69540924 0.278546 1.4366816
000200 aa e9 8c 3d 56 20 02 bd cd a6 f9 3c 7c 0e 1d bc
       0.068805054 -0.03176912 0.030475045 -0.009585973
000210 4c 05 24 bf 17 07 9e 3e 5e c5 95 bf b9 de b3 be
       -0.6407058 0.30864784 -1.1700857 -0.3513086
000220 69 62 79 bf 67 a7 8d 3f 0c d7 e7 be 42 71 bc 3c
       -0.97415787 1.1066712 -0.45281255 0.023003224
000230 4a ff cb 3c 6e 55 49 bf a6 5f 58 bf d3 69 27 bf
       0.024902005 -0.7864598 -0.8452095 -0.6539585
000240 77 59 12 bd e5 9f a0 be cb b2 ab bf 42 2a b3 3c
       -0.03572985 -0.3137199 -1.3413938 0.021870736
000250 99 cc 69 3a 85 22 19 3f 4b df 01 bb 91 4a 81 3b
       0.0008918732 0.598183 -0.001981693 0.0039456566
000260 39 dd 55 3f 85 99 eb 3e 60 14 73 3d fe 85 d4 bf
       0.83540684 0.46015564 0.059345603 -1.6603391
000270 fe c0 84 3d c9 86 12 be fc 5c 6b bc c7 31 0d c0
       0.06482123 -0.14309229 -0.014365431 -2.2061632
000280 ba 1a e0 bf cf 13 c5 3c 24 cc 96 bd f6 32 f5 bb
       -1.7508156 0.024057297 -0.073631555 -0.0074828817
000290 28 58 d9 3f 45 9b a7 ba 58 10 66 3d f5 99 b3 3f
       1.6980028 -0.0012787363 0.05616793 1.4031359
0002a0 4e c7 be bc 26 2b b0 3e 6b 1d 94 bf 85 75 dd 3c
       -0.023288395 0.3440792 -1.1571478 0.027033577
0002b0 df b6 81 3c 79 89 7c 3d 18 00 eb bf 7b 7f 86 3d
       0.01583427 0.06165454 -1.8359404 0.06567284
0002c0 8e 0b ac 3f 70 0d ea bc 69 4b 2b bd ff e3 bb 3f
       1.3441026 -0.02857086 -0.041819964 1.4678954
0002d0 d1 81 0e bf dc eb df 3f 5c 25 41 3f 6f ac 3f 3f
       -0.55666834 1.7493854 0.7544763 0.7487249
0002e0 a0 a6 2e 3f ef 8a f1 3e c2 49 40 bf bd 6a ba 3e
       0.68223 0.4717631 -0.75112545 0.3640956
0002f0 29 0d ec bc 03 3e 00 be 25 d3 b2 3c 8d f2 7c 3d
       -0.028814869 -0.12523656 0.021829197 0.061754752
000300 14 bf af 3f 95 fa 9f 3e 24 de 3a 3e 39 ee 05 bd
       1.3730187 0.31245866 0.18248802 -0.03269789
000310 50 20 bf 3e dc 42 25 c0 f9 fa 67 3c c8 f1 2e bc
       0.3732934 -2.5822058 0.014158958 -0.010677762
000320 8b 65 95 bd ba a3 eb 3f 73 25 4f bf e4 81 85 3f
       -0.072947584 1.840934 -0.8091652 1.0430264
000330 29 e6 c6 bf d2 54 5a bd 1d a7 b4 3d cb ea 42 3f
       -1.5538989 -0.053303547 0.08820937 0.76139516
000340 c7 2b 5d 3c d9 19 80 3f dd 77 ff 3c 18 24 01 bd
       0.013499207 1.0007888 0.031185085 -0.031528562
000350 bc a7 e6 be 8b 35 dd 3b 0c 67 db 3c dd 88 1f 40
       -0.45049846 0.0067507676 0.026782535 2.4927285
000360 a1 5a 27 3f 6a 8a 86 bc 9d 1c 5e bf 4d f5 12 bf
       0.65372664 -0.016423423 -0.8676241 -0.5740555
000370 14 f5 dd 3e 0e e5 af bf a9 ef f2 bf db 67 98 bd
       0.43351042 -1.3741777 -1.8979388 -0.07441684
000380 dd f7 b2 3e ab 1a 42 bf 06 8c 0e 3e 71 f8 16 3e
       0.3495473 -0.7582194 0.13920602 0.1474321
000390 46 d6 b2 3e e8 a9 15 3f b6 9b 08 bd a0 5a 7f be
       0.34929103 0.5846238 -0.033351623 -0.24936914
0003a0 51 0f e3 bd c1 08 d9 3e ec 81 96 bd 4a 1d 38 3f
       -0.11086906 0.4238949 -0.073489994 0.7191969
0003b0 7e e7 12 c0 df e6 92 bd 99 6c 1f 3d 0a dd 87 be
       -2.2953792 -0.071729414 0.038921926 -0.26535827
0003c0 5d c4 6f bf d8 7d 7a 3f b2 58 04 be 5a 5e 32 3f
       -0.93659 0.9784827 -0.1292446 0.6967522
0003d0 bd 38 b0 3d 41 ce 39 bb 7f 1d 59 3e 66 df 31 bd
       0.08604572 -0.0028351697 0.21202658 -0.04342594
0003e0 03 79 02 3d dd 3e 3c 3d 19 79 a0 bb 70 c6 e0 3d
       0.031853687 0.04595839 -0.0048972485 0.10975349
0003f0 29 3b a6 bd 83 a1 71 3e b3 47 0c c0 7d df 33 40
       -0.08116753 0.23596768 -2.1918762 2.8105156

linear3.bias f4 [4]
000000 59 29 be 3e 9a 59 a9 be d5 82 7d 3e 9a 98 08 bf
       0.3714092 -0.33076173 0.2475694 -0.5335785
